__________________________________________________________________________________________________
Layer (type)                    Output Shape         Param #     Connected to                     
==================================================================================================
input_1 (InputLayer)            (None, 229, 229, 3)  0                                            
__________________________________________________________________________________________________
block1_conv1 (Conv2D)           (None, 114, 114, 32) 864         input_1[0][0]                    
__________________________________________________________________________________________________
block1_conv1_bn (BatchNormaliza (None, 114, 114, 32) 128         block1_conv1[0][0]               
__________________________________________________________________________________________________
block1_conv1_act (Activation)   (None, 114, 114, 32) 0           block1_conv1_bn[0][0]            
__________________________________________________________________________________________________
block1_conv2 (Conv2D)           (None, 112, 112, 64) 18432       block1_conv1_act[0][0]           
__________________________________________________________________________________________________
block1_conv2_bn (BatchNormaliza (None, 112, 112, 64) 256         block1_conv2[0][0]               
__________________________________________________________________________________________________
block1_conv2_act (Activation)   (None, 112, 112, 64) 0           block1_conv2_bn[0][0]            
__________________________________________________________________________________________________
block2_sepconv1 (SeparableConv2 (None, 112, 112, 128 8768        block1_conv2_act[0][0]           
__________________________________________________________________________________________________
block2_sepconv1_bn (BatchNormal (None, 112, 112, 128 512         block2_sepconv1[0][0]            
…
block2_sepconv2_act (Activation (None, 112, 112, 128 0           block2_sepconv1_bn[0][0]         
__________________________________________________________________________________________________
block2_sepconv2 (SeparableConv2 (None, 112, 112, 128 17536       block2_sepconv2_act[0][0]        
__________________________________________________________________________________________________
block2_sepconv2_bn (BatchNormal (None, 112, 112, 128 512         block2_sepconv2[0][0]            
__________________________________________________________________________________________________
conv2d_1 (Conv2D)               (None, 56, 56, 128)  8192        block1_conv2_act[0][0]           
__________________________________________________________________________________________________
block2_pool (MaxPooling2D)      (None, 56, 56, 128)  0           block2_sepconv2_bn[0][0]         
__________________________________________________________________________________________________
batch_normalization_1 (BatchNor (None, 56, 56, 128)  512         conv2d_1[0][0]                   
__________________________________________________________________________________________________
add_1 (Add)                     (None, 56, 56, 128)  0           block2_pool[0][0]                
                                                                 batch_normalization_1[0][0]      
__________________________________________________________________________________________________
block3_sepconv1_act (Activation (None, 56, 56, 128)  0           add_1[0][0]                      
__________________________________________________________________________________________________
block3_sepconv1 (SeparableConv2 (None, 56, 56, 256)  33920       block3_sepconv1_act[0][0]        
__________________________________________________________________________________________________
block3_sepconv1_bn (BatchNormal (None, 56, 56, 256)  1024        block3_sepconv1[0][0]            
__________________________________________________________________________________________________
block3_sepconv2_act (Activation (None, 56, 56, 256)  0           block3_sepconv1_bn[0][0]         
__________________________________________________________________________________________________
block3_sepconv2 (SeparableConv2 (None, 56, 56, 256)  67840       block3_sepconv2_act[0][0]        
__________________________________________________________________________________________________
block3_sepconv2_bn (BatchNormal (None, 56, 56, 256)  1024        block3_sepconv2[0][0]            
__________________________________________________________________________________________________
conv2d_2 (Conv2D)               (None, 28, 28, 256)  32768       add_1[0][0]                      
__________________________________________________________________________________________________
block3_pool (MaxPooling2D)      (None, 28, 28, 256)  0           block3_sepconv2_bn[0][0]         
__________________________________________________________________________________________________
batch_normalization_2 (BatchNor (None, 28, 28, 256)  1024        conv2d_2[0][0]                   
__________________________________________________________________________________________________
add_2 (Add)                     (None, 28, 28, 256)  0           block3_pool[0][0]                
                                                                 batch_normalization_2[0][0]      
__________________________________________________________________________________________________
block4_sepconv1_act (Activation (None, 28, 28, 256)  0           add_2[0][0]                      
__________________________________________________________________________________________________
block4_sepconv1 (SeparableConv2 (None, 28, 28, 728)  188672      block4_sepconv1_act[0][0]        
__________________________________________________________________________________________________
block4_sepconv1_bn (BatchNormal (None, 28, 28, 728)  2912        block4_sepconv1[0][0]            
__________________________________________________________________________________________________
block4_sepconv2_act (Activation (None, 28, 28, 728)  0           block4_sepconv1_bn[0][0]         
__________________________________________________________________________________________________
block4_sepconv2 (SeparableConv2 (None, 28, 28, 728)  536536      block4_sepconv2_act[0][0]        
__________________________________________________________________________________________________
block4_sepconv2_bn (BatchNormal (None, 28, 28, 728)  2912        block4_sepconv2[0][0]            
__________________________________________________________________________________________________
conv2d_3 (Conv2D)               (None, 14, 14, 728)  186368      add_2[0][0]                      
__________________________________________________________________________________________________
block4_pool (MaxPooling2D)      (None, 14, 14, 728)  0           block4_sepconv2_bn[0][0]         
__________________________________________________________________________________________________
batch_normalization_3 (BatchNor (None, 14, 14, 728)  2912        conv2d_3[0][0]                   
__________________________________________________________________________________________________
add_3 (Add)                     (None, 14, 14, 728)  0           block4_pool[0][0]                
                                                                 batch_normalization_3[0][0]      
__________________________________________________________________________________________________
block5_sepconv1_act (Activation (None, 14, 14, 728)  0           add_3[0][0]                      
__________________________________________________________________________________________________
block5_sepconv1 (SeparableConv2 (None, 14, 14, 728)  536536      block5_sepconv1_act[0][0]        
__________________________________________________________________________________________________
block5_sepconv1_bn (BatchNormal (None, 14, 14, 728)  2912        block5_sepconv1[0][0]            
__________________________________________________________________________________________________
block5_sepconv2_act (Activation (None, 14, 14, 728)  0           block5_sepconv1_bn[0][0]         
__________________________________________________________________________________________________
block5_sepconv2 (SeparableConv2 (None, 14, 14, 728)  536536      block5_sepconv2_act[0][0]        
__________________________________________________________________________________________________
block5_sepconv2_bn (BatchNormal (None, 14, 14, 728)  2912        block5_sepconv2[0][0]            
__________________________________________________________________________________________________
block5_sepconv3_act (Activation (None, 14, 14, 728)  0           block5_sepconv2_bn[0][0]         
__________________________________________________________________________________________________
block5_sepconv3 (SeparableConv2 (None, 14, 14, 728)  536536      block5_sepconv3_act[0][0]        
__________________________________________________________________________________________________
block5_sepconv3_bn (BatchNormal (None, 14, 14, 728)  2912        block5_sepconv3[0][0]            
__________________________________________________________________________________________________
add_4 (Add)                     (None, 14, 14, 728)  0           block5_sepconv3_bn[0][0]         
                                                                 add_3[0][0]                      
__________________________________________________________________________________________________
block6_sepconv1_act (Activation (None, 14, 14, 728)  0           add_4[0][0]                      
__________________________________________________________________________________________________
block6_sepconv1 (SeparableConv2 (None, 14, 14, 728)  536536      block6_sepconv1_act[0][0]        
__________________________________________________________________________________________________
block6_sepconv1_bn (BatchNormal (None, 14, 14, 728)  2912        block6_sepconv1[0][0]            
__________________________________________________________________________________________________
block6_sepconv2_act (Activation (None, 14, 14, 728)  0           block6_sepconv1_bn[0][0]         
__________________________________________________________________________________________________
block6_sepconv2 (SeparableConv2 (None, 14, 14, 728)  536536      block6_sepconv2_act[0][0]        
__________________________________________________________________________________________________
block6_sepconv2_bn (BatchNormal (None, 14, 14, 728)  2912        block6_sepconv2[0][0]            
__________________________________________________________________________________________________
block6_sepconv3_act (Activation (None, 14, 14, 728)  0           block6_sepconv2_bn[0][0]         
__________________________________________________________________________________________________
block6_sepconv3 (SeparableConv2 (None, 14, 14, 728)  536536      block6_sepconv3_act[0][0]        
__________________________________________________________________________________________________
block6_sepconv3_bn (BatchNormal (None, 14, 14, 728)  2912        block6_sepconv3[0][0]            
__________________________________________________________________________________________________
add_5 (Add)                     (None, 14, 14, 728)  0           block6_sepconv3_bn[0][0]         
                                                                 add_4[0][0]                      
__________________________________________________________________________________________________
block7_sepconv1_act (Activation (None, 14, 14, 728)  0           add_5[0][0]                      
__________________________________________________________________________________________________
block7_sepconv1 (SeparableConv2 (None, 14, 14, 728)  536536      block7_sepconv1_act[0][0]        
__________________________________________________________________________________________________
block7_sepconv1_bn (BatchNormal (None, 14, 14, 728)  2912        block7_sepconv1[0][0]            
__________________________________________________________________________________________________
block7_sepconv2_act (Activation (None, 14, 14, 728)  0           block7_sepconv1_bn[0][0]         
__________________________________________________________________________________________________
block7_sepconv2 (SeparableConv2 (None, 14, 14, 728)  536536      block7_sepconv2_act[0][0]        
__________________________________________________________________________________________________
block7_sepconv2_bn (BatchNormal (None, 14, 14, 728)  2912        block7_sepconv2[0][0]            
__________________________________________________________________________________________________
block7_sepconv3_act (Activation (None, 14, 14, 728)  0           block7_sepconv2_bn[0][0]         
__________________________________________________________________________________________________
block7_sepconv3 (SeparableConv2 (None, 14, 14, 728)  536536      block7_sepconv3_act[0][0]        
__________________________________________________________________________________________________
block7_sepconv3_bn (BatchNormal (None, 14, 14, 728)  2912        block7_sepconv3[0][0]            
__________________________________________________________________________________________________
add_6 (Add)                     (None, 14, 14, 728)  0           block7_sepconv3_bn[0][0]         
                                                                 add_5[0][0]                      
__________________________________________________________________________________________________
block8_sepconv1_act (Activation (None, 14, 14, 728)  0           add_6[0][0]                      
__________________________________________________________________________________________________
block8_sepconv1 (SeparableConv2 (None, 14, 14, 728)  536536      block8_sepconv1_act[0][0]        
__________________________________________________________________________________________________
block8_sepconv1_bn (BatchNormal (None, 14, 14, 728)  2912        block8_sepconv1[0][0]            
__________________________________________________________________________________________________
block8_sepconv2_act (Activation (None, 14, 14, 728)  0           block8_sepconv1_bn[0][0]         
__________________________________________________________________________________________________
block8_sepconv2 (SeparableConv2 (None, 14, 14, 728)  536536      block8_sepconv2_act[0][0]        
__________________________________________________________________________________________________
block8_sepconv2_bn (BatchNormal (None, 14, 14, 728)  2912        block8_sepconv2[0][0]            
__________________________________________________________________________________________________
block8_sepconv3_act (Activation (None, 14, 14, 728)  0           block8_sepconv2_bn[0][0]         
__________________________________________________________________________________________________
block8_sepconv3 (SeparableConv2 (None, 14, 14, 728)  536536      block8_sepconv3_act[0][0]        
__________________________________________________________________________________________________
block8_sepconv3_bn (BatchNormal (None, 14, 14, 728)  2912        block8_sepconv3[0][0]            
__________________________________________________________________________________________________
add_7 (Add)                     (None, 14, 14, 728)  0           block8_sepconv3_bn[0][0]         
                                                                 add_6[0][0]                      
__________________________________________________________________________________________________
block9_sepconv1_act (Activation (None, 14, 14, 728)  0           add_7[0][0]                      
__________________________________________________________________________________________________
block9_sepconv1 (SeparableConv2 (None, 14, 14, 728)  536536      block9_sepconv1_act[0][0]        
__________________________________________________________________________________________________
block9_sepconv1_bn (BatchNormal (None, 14, 14, 728)  2912        block9_sepconv1[0][0]            
__________________________________________________________________________________________________
block9_sepconv2_act (Activation (None, 14, 14, 728)  0           block9_sepconv1_bn[0][0]         
__________________________________________________________________________________________________
block9_sepconv2 (SeparableConv2 (None, 14, 14, 728)  536536      block9_sepconv2_act[0][0]        
__________________________________________________________________________________________________
block9_sepconv2_bn (BatchNormal (None, 14, 14, 728)  2912        block9_sepconv2[0][0]            
__________________________________________________________________________________________________
block9_sepconv3_act (Activation (None, 14, 14, 728)  0           block9_sepconv2_bn[0][0]         
__________________________________________________________________________________________________
block9_sepconv3 (SeparableConv2 (None, 14, 14, 728)  536536      block9_sepconv3_act[0][0]        
__________________________________________________________________________________________________
block9_sepconv3_bn (BatchNormal (None, 14, 14, 728)  2912        block9_sepconv3[0][0]            
__________________________________________________________________________________________________
add_8 (Add)                     (None, 14, 14, 728)  0           block9_sepconv3_bn[0][0]         
                                                                 add_7[0][0]                      
__________________________________________________________________________________________________
block10_sepconv1_act (Activatio (None, 14, 14, 728)  0           add_8[0][0]                      
__________________________________________________________________________________________________
block10_sepconv1 (SeparableConv (None, 14, 14, 728)  536536      block10_sepconv1_act[0][0]       
__________________________________________________________________________________________________
block10_sepconv1_bn (BatchNorma (None, 14, 14, 728)  2912        block10_sepconv1[0][0]           
__________________________________________________________________________________________________
block10_sepconv2_act (Activatio (None, 14, 14, 728)  0           block10_sepconv1_bn[0][0]        
__________________________________________________________________________________________________
block10_sepconv2 (SeparableConv (None, 14, 14, 728)  536536      block10_sepconv2_act[0][0]       
__________________________________________________________________________________________________
block10_sepconv2_bn (BatchNorma (None, 14, 14, 728)  2912        block10_sepconv2[0][0]           
__________________________________________________________________________________________________
block10_sepconv3_act (Activatio (None, 14, 14, 728)  0           block10_sepconv2_bn[0][0]        
__________________________________________________________________________________________________
block10_sepconv3 (SeparableConv (None, 14, 14, 728)  536536      block10_sepconv3_act[0][0]       
__________________________________________________________________________________________________
block10_sepconv3_bn (BatchNorma (None, 14, 14, 728)  2912        block10_sepconv3[0][0]           
__________________________________________________________________________________________________
add_9 (Add)                     (None, 14, 14, 728)  0           block10_sepconv3_bn[0][0]        
                                                                 add_8[0][0]                      
__________________________________________________________________________________________________
block11_sepconv1_act (Activatio (None, 14, 14, 728)  0           add_9[0][0]                      
__________________________________________________________________________________________________
block11_sepconv1 (SeparableConv (None, 14, 14, 728)  536536      block11_sepconv1_act[0][0]       
__________________________________________________________________________________________________
block11_sepconv1_bn (BatchNorma (None, 14, 14, 728)  2912        block11_sepconv1[0][0]           
__________________________________________________________________________________________________
block11_sepconv2_act (Activatio (None, 14, 14, 728)  0           block11_sepconv1_bn[0][0]        
__________________________________________________________________________________________________
block11_sepconv2 (SeparableConv (None, 14, 14, 728)  536536      block11_sepconv2_act[0][0]       
__________________________________________________________________________________________________
block11_sepconv2_bn (BatchNorma (None, 14, 14, 728)  2912        block11_sepconv2[0][0]           
__________________________________________________________________________________________________
block11_sepconv3_act (Activatio (None, 14, 14, 728)  0           block11_sepconv2_bn[0][0]        
__________________________________________________________________________________________________
block11_sepconv3 (SeparableConv (None, 14, 14, 728)  536536      block11_sepconv3_act[0][0]       
__________________________________________________________________________________________________
block11_sepconv3_bn (BatchNorma (None, 14, 14, 728)  2912        block11_sepconv3[0][0]           
__________________________________________________________________________________________________
add_10 (Add)                    (None, 14, 14, 728)  0           block11_sepconv3_bn[0][0]        
                                                                 add_9[0][0]                      
__________________________________________________________________________________________________
block12_sepconv1_act (Activatio (None, 14, 14, 728)  0           add_10[0][0]                     
__________________________________________________________________________________________________
block12_sepconv1 (SeparableConv (None, 14, 14, 728)  536536      block12_sepconv1_act[0][0]       
__________________________________________________________________________________________________
block12_sepconv1_bn (BatchNorma (None, 14, 14, 728)  2912        block12_sepconv1[0][0]           
__________________________________________________________________________________________________
block12_sepconv2_act (Activatio (None, 14, 14, 728)  0           block12_sepconv1_bn[0][0]        
__________________________________________________________________________________________________
block12_sepconv2 (SeparableConv (None, 14, 14, 728)  536536      block12_sepconv2_act[0][0]       
__________________________________________________________________________________________________
block12_sepconv2_bn (BatchNorma (None, 14, 14, 728)  2912        block12_sepconv2[0][0]           
__________________________________________________________________________________________________
block12_sepconv3_act (Activatio (None, 14, 14, 728)  0           block12_sepconv2_bn[0][0]        
__________________________________________________________________________________________________
block12_sepconv3 (SeparableConv (None, 14, 14, 728)  536536      block12_sepconv3_act[0][0]       
__________________________________________________________________________________________________
block12_sepconv3_bn (BatchNorma (None, 14, 14, 728)  2912        block12_sepconv3[0][0]           
__________________________________________________________________________________________________
add_11 (Add)                    (None, 14, 14, 728)  0           block12_sepconv3_bn[0][0]        
                                                                 add_10[0][0]                     
__________________________________________________________________________________________________
block13_sepconv1_act (Activatio (None, 14, 14, 728)  0           add_11[0][0]                     
__________________________________________________________________________________________________
block13_sepconv1 (SeparableConv (None, 14, 14, 728)  536536      block13_sepconv1_act[0][0]       
__________________________________________________________________________________________________
block13_sepconv1_bn (BatchNorma (None, 14, 14, 728)  2912        block13_sepconv1[0][0]           
__________________________________________________________________________________________________
block13_sepconv2_act (Activatio (None, 14, 14, 728)  0           block13_sepconv1_bn[0][0]        
__________________________________________________________________________________________________
block13_sepconv2 (SeparableConv (None, 14, 14, 1024) 752024      block13_sepconv2_act[0][0]       
__________________________________________________________________________________________________
block13_sepconv2_bn (BatchNorma (None, 14, 14, 1024) 4096        block13_sepconv2[0][0]           
__________________________________________________________________________________________________
conv2d_4 (Conv2D)               (None, 7, 7, 1024)   745472      add_11[0][0]                     
__________________________________________________________________________________________________
block13_pool (MaxPooling2D)     (None, 7, 7, 1024)   0           block13_sepconv2_bn[0][0]        
__________________________________________________________________________________________________
batch_normalization_4 (BatchNor (None, 7, 7, 1024)   4096        conv2d_4[0][0]                   
__________________________________________________________________________________________________
add_12 (Add)                    (None, 7, 7, 1024)   0           block13_pool[0][0]               
                                                                 batch_normalization_4[0][0]      
__________________________________________________________________________________________________
block14_sepconv1 (SeparableConv (None, 7, 7, 1536)   1582080     add_12[0][0]                     
__________________________________________________________________________________________________
block14_sepconv1_bn (BatchNorma (None, 7, 7, 1536)   6144        block14_sepconv1[0][0]           
__________________________________________________________________________________________________
block14_sepconv1_act (Activatio (None, 7, 7, 1536)   0           block14_sepconv1_bn[0][0]        
__________________________________________________________________________________________________
block14_sepconv2 (SeparableConv (None, 7, 7, 2048)   3159552     block14_sepconv1_act[0][0]       
__________________________________________________________________________________________________
block14_sepconv2_bn (BatchNorma (None, 7, 7, 2048)   8192        block14_sepconv2[0][0]           
__________________________________________________________________________________________________
block14_sepconv2_act (Activatio (None, 7, 7, 2048)   0           block14_sepconv2_bn[0][0]        
__________________________________________________________________________________________________
global_average_pooling2d_1 (Glo (None, 2048)         0           block14_sepconv2_act[0][0]       
__________________________________________________________________________________________________
dense_1 (Dense)                 (None, 128)          262272      global_average_pooling2d_1[0][0] 
__________________________________________________________________________________________________
dense_2 (Dense)                 (None, 1)            129         dense_1[0][0]                    
==================================================================================================
Total params: 21,123,881
Trainable params: 262,401
Non-trainable params: 20,861,480
__________________________________________________________________________________________________
